model/weights/model_bog.pth (torch, 11615 bytes, 6 tensors)

linear1.weight f4 [8, 195]
0	0xbe265a79	-0.1624545
1	0x3f3bec11	0.73407084
2	0xbef14fb2	-0.47131115
3	0xbf191c27	-0.5980858
4	0x3fc6625c	1.5498767
5	0x3fbe037a	1.4844811
6	0xbd10d3c2	-0.035358198
7	0x3efce7b6	0.4939553
8	0x3fa86d9d	1.3158451
9	0xbe7011bb	-0.23444264
10	0x3f1494d7	0.5803961
11	0xbed81c7b	-0.4220923
12	0x3e765f8e	0.24059889
13	0xbe2cfac4	-0.16892534
14	0x3e332b5a	0.17497006
15	0xbe4f2f85	-0.20232971
16	0x3f9eb715	1.2399622
17	0x3f9c8a1d	1.2229649
18	0xbecd3a25	-0.40083423
19	0x3f53cd8b	0.8273551
20	0x3dd893fb	0.105751
21	0x3eaf3e27	0.34227106
22	0x3c6ff4dc	0.014645781
23	0xbe894af8	-0.2681501
24	0xbf131537	-0.57454246
25	0x3fbd2964	1.4778256
26	0x3fbf52b5	1.4947115
27	0x3fc576b1	1.5426847
28	0x3fc561f1	1.5420514
29	0xbf19f8ba	-0.6014515
30	0x3fb67cde	1.4256856
31	0x3fbb6e6c	1.4643073
32	0x3fc29838	1.5202703
33	0x3f98f450	1.1949558
34	0xbe9e7c1a	-0.30954057
35	0xbdcbd713	-0.099531315
36	0x3ebdb3d3	0.37051257
37	0x3dc8c412	0.098030224
38	0x3f7d78be	0.9901236
39	0xbe1742d5	-0.14771588
40	0x3eee27a6	0.46514624
41	0x3e062cd3	0.13103037
42	0x3fbd2284	1.4776158
43	0x3ecc488c	0.398991
44	0xbee03fdb	-0.43798718
45	0xbd08a923	-0.033364426
46	0x3ed47aee	0.41500038
47	0xbac125c0	-0.0014735982
48	0xbf5f2039	-0.8715854
49	0xbd8a3865	-0.06749038
50	0xbdb0298d	-0.08601675
51	0xbf5faf2d	-0.8737667
52	0x40114532	2.2698483
53	0x3f4f390e	0.80946434
54	0x3e511d1e	0.20421264
55	0x3dc4e774	0.09614459
56	0xbe52737e	-0.2055187
57	0x3ea41ffd	0.32055655
58	0x3f1758b3	0.5911972
59	0x3f8d23e3	1.1026577
60	0xbd7e70cc	-0.06211929
61	0x3fbc4f9d	1.4711796
62	0x3e8eb763	0.27874288
63	0xbd3bc85d	-0.04584538
64	0xbd0b2093	-0.033966612
65	0xbe907a22	-0.2821818
66	0xbf022dc3	-0.50851077
67	0x3ec28733	0.37993774
68	0x3e853b10	0.26021624
69	0xbf3625e2	-0.71151555
70	0xbe318f47	-0.17339812
71	0xbe5b2787	-0.21401797
72	0xbee8e06c	-0.4548372
73	0x3ef42f3a	0.4769228
74	0xbe8d6e40	-0.27623177
75	0x3e1c4cca	0.15263668
76	0x3f94a92b	1.1614126
77	0x3cb3ff7f	0.021972416
78	0x3e8208ca	0.2539733
79	0x3fbdf1b1	1.4839383
80	0x3ed78991	0.42097142
81	0x3f98f68e	1.1950243
82	0x3f97b85f	1.185314
83	0xbeb5e54f	-0.3552651
84	0x3c8427d5	0.016132275
85	0x3c8f76fe	0.017512795
86	0xbe5345d2	-0.20632103
87	0x3f8afff7	1.0859364
88	0xbe90fe03	-0.28318796
89	0x3f2d39b4	0.67666173
90	0xbf02b826	-0.5106224
91	0xbf030e53	-0.5119373
92	0xbf02e9ff	-0.511383
93	0xbf20292c	-0.62562823
94	0xbf0270c7	-0.50953335
95	0xbf02a6ef	-0.5103597
96	0xbf577516	-0.84163034
97	0x3fb0248f	1.3761157
98	0xbf0225dc	-0.5083902
99	0xbf02f295	-0.511514
100	0xbc5e65ee	-0.013574107
101	0x3e69852e	0.2280471
102	0x3d3d89db	0.046274047
103	0x3ea20a0a	0.31648284
104	0x3d5fc1f2	0.05462832
105	0x3fc468e7	1.5344514
106	0x3eb3a006	0.35083026
107	0xbdc4f1b3	-0.09616413
108	0x3f532e96	0.8249296
109	0x3fc91260	1.5708733
110	0x3f2bef79	0.6716228
111	0x3f7f4a5e	0.9972285
112	0xbd4eb59c	-0.050466165
113	0x3fa1a939	1.2629768
114	0x3e8de49a	0.27713472
115	0xbd524666	-0.05133667
116	0x3eb6bda3	0.35691556
117	0xbf1f28fc	-0.6217191
118	0x3ef2bf99	0.47411802
119	0xbfbd2d9b	-1.4779543
120	0xbe5870b8	-0.21136749
121	0x3f662fc7	0.8991665
122	0x3e2b51a1	0.16730358
123	0xbee9f5f8	-0.45695472
124	0xbf1405b2	-0.5782119
125	0xbf0286cc	-0.50986934
126	0xbf02aea4	-0.5104773
127	0xbe6c8f35	-0.23101504
128	0x3ef08a10	0.46980333
129	0x3e802633	0.25029144
130	0x3f163e64	0.5868895
131	0xbc9ba1b8	-0.018998012
132	0x3f92f012	1.1479514
133	0xbe529593	-0.2056487
134	0xbeac3d84	-0.33640683
135	0xbe320b02	-0.17387012
136	0xbe3ffc3f	-0.18748568
137	0xbf4fe751	-0.81212336
138	0x3e2ca956	0.16861472
139	0x3ebd5865	0.36981502
140	0xbf9d417c	-1.2285609
141	0x3ebacb7c	0.3648337
142	0xbe6ec95b	-0.23318999
143	0xbebbfbbe	-0.36715502
144	0x3fb3d368	1.4048891
145	0x3f10e2c6	0.5659603
146	0xbc839240	-0.016060948
147	0xbfa2866f	-1.2697276
148	0xbddd39d1	-0.10802043
149	0x3ec7c45f	0.39017007
150	0x3e76c6f7	0.24099337
151	0x3e76aca8	0.240893
152	0x3f79d122	0.97584736
153	0x3f6d7ad4	0.92765546
154	0xbd871d76	-0.06597416
155	0xbe3b1019	-0.1826786
156	0x3f8b0e36	1.0863712
157	0x3f566c05	0.83758575
158	0x3dc7d402	0.09757234
159	0xbf0278b7	-0.50965446
160	0xbd3eacd2	-0.046551533
161	0x3fbc40b2	1.4707243
162	0xbd5f3905	-0.054497737
163	0xbeca2cd2	-0.3948732
164	0xbb3dca80	-0.002895981
165	0x3faf98eb	1.3718542
166	0x3d259736	0.04042741
167	0x3b67d38d	0.0035373897
168	0xbe8dca1a	-0.27693254
169	0xbd79fec7	-0.06103399
170	0x3f3b063d	0.73056394
171	0xbde877cb	-0.11350974
172	0xbe6f9a66	-0.23398742
173	0x3f371e08	0.715302
174	0x3e0eeab4	0.1395672
175	0x3f9a8bcd	1.2073914
176	0x3e2f32e8	0.17109263
177	0xbec2f6b0	-0.38078833
178	0x3eab8a20	0.3350382
179	0x3e8ee469	0.27908638
180	0x3fbfb52a	1.4977162
181	0x3f5a914e	0.8537797
182	0xbdf4ca22	-0.11952616
183	0x3f973a22	1.1814616
184	0x3ea29bcd	0.31759492
185	0x3f35a54d	0.70955354
186	0xbd6e23a6	-0.058139466
187	0x3f4476bd	0.7674368
188	0xbdc3dfaa	-0.09564145
189	0xbefb946f	-0.49136683
190	0x3f595754	0.8489888
191	0xbef2aea1	-0.47398856
192	0x3fabb5ac	1.3414817
193	0xbf25f240	-0.6482277
194	0xbf02bb91	-0.51067454
195	0x3e820d97	0.25400993
196	0x3ede6cde	0.43442434
197	0x3db68041	0.08911181
198	0x3dd9dd7a	0.106379464
199	0xbf0a9af4	-0.5414269
200	0xbf12896c	-0.5724094
201	0x3e90dd4f	0.28293845
202	0x3eea3b37	0.45748302
203	0x40008e40	2.0086823
204	0x3ec43b9a	0.38326722
205	0x3df2a3e9	0.1184767
206	0x3ee2d40a	0.44302398
207	0x3e7697e2	0.24081376
208	0x3d837f21	0.06420732
209	0x3dd61f81	0.10455228
210	0x3e9a3294	0.30116713
211	0x3fa1743c	1.2613597
212	0x3fa22694	1.2668023
213	0x3efb4925	0.49079242
214	0xbe96cf3b	-0.2945498
215	0x3e7b00e6	0.24512061
216	0x3ebe1e1c	0.37132347
217	0x3e92c1d1	0.28663495
218	0x3ea7833f	0.3271732
219	0x3f693676	0.91098726
220	0xbf126d4c	-0.57198024
221	0xbf0e58f0	-0.5560446
222	0xbf135f9d	-0.5756777
223	0xbf092097	-0.53565353
224	0x3e33f858	0.17575204
225	0xbf10ffdf	-0.5664043
226	0xbf10a0e1	-0.5649548
227	0xbf11c423	-0.56939906
228	0x3e520bf6	0.20512375
229	0x3f17322e	0.59060943
230	0x3eca1ac5	0.3947355
231	0x3e71c7a5	0.23611315
232	0x3d8abd89	0.06774432
233	0x3f9a2391	1.2042104
234	0x3e12b2e5	0.14326055
235	0x3e529d83	0.20567898
236	0xbd6a0edd	-0.05714308
237	0xbf08d306	-0.53446996
238	0xbe23615f	-0.15955113
239	0x3f04addc	0.5182779
240	0x3daf4f9b	0.085601054
241	0x3f674b92	0.90349686
242	0xbc0b2d88	-0.008494742
243	0x3f4daed2	0.8034488
244	0xbe0d460e	-0.13796255
245	0xbf245fab	-0.6420848
246	0x3f2c02cb	0.6719176
247	0xbfef8105	-1.8711249
248	0xbf1b4977	-0.60658973
249	0x3e7530e2	0.23944429
250	0x3d17af09	0.03703216
251	0x3de65da9	0.11248333
252	0x3e40ce09	0.18828596
253	0x3e3cdc0a	0.18443313
254	0x3f42c5c5	0.7608302
255	0xbdfabe87	-0.122433715

linear1.bias f4 [8]
0	0x3efce7d9	0.49395636
1	0x3f0e12e0	0.5549755
2	0x3eab7783	0.33489618
3	0x3eaa0e64	0.33214104
4	0x3f27a08d	0.65479356
5	0x3f00e60e	0.50351036
6	0x3ed59721	0.41716865
7	0x3ef25802	0.4733277

linear2.weight f4 [8, 8]
0	0xbf941b89	-1.1570903
1	0x3f00e3cd	0.50347596
2	0x3db8738f	0.09006416
3	0x3e9d489f	0.30719468
4	0xbcefbcc0	-0.029264808
5	0x3e82d556	0.25553387
6	0x3fd3eec5	1.6557242
7	0x3f7d204a	0.98877394
8	0x3fbeda83	1.4910434
9	0xbf1df831	-0.61706835
10	0xbfa0187f	-1.2507476
11	0x3f1fa05a	0.6235405
12	0x3f5c0014	0.8593762
13	0x3bceffc2	0.00631711
14	0x3d0625cb	0.032750886
15	0x3f2bc069	0.6709047
16	0xbee2c8f4	-0.4429394
17	0xbeeff8be	-0.46869463
18	0xbcd30e10	-0.025763541
19	0x3ef75137	0.4830415
20	0x3dbf9c20	0.0935595
21	0x3ecec8d5	0.40387598
22	0x3feace6c	1.8344245
23	0x3fbcd706	1.475312
24	0x3ec31845	0.38104454
25	0x3f68305b	0.90698785
26	0xbfa7dbb0	-1.3113918
27	0x3e160a4b	0.14652364
28	0xbdbc6841	-0.09199572
29	0x3f9bd6c3	1.2174915
30	0x3eaaac6e	0.33334678
31	0xbf17de42	-0.59323514
32	0x3fd6f454	1.6793313
33	0x3ef01a17	0.46894905
34	0xbf3483c7	-0.70513576
35	0x3f04a87e	0.518196
36	0x3d83c4da	0.06434031
37	0x3f0a1985	0.5394519
38	0xbe084ece	-0.13311312
39	0xbdcc5969	-0.09977991
40	0x3e9286de	0.2861852
41	0x3f66d5ce	0.9016999
42	0x3f7ea66b	0.99472684
43	0xbf25008f	-0.6445398
44	0x3fa58f22	1.2934306
45	0x3e3fc7e7	0.187286
46	0xbf4c1d43	-0.7973215
47	0x3c99fdfa	0.018797863
48	0xbe960c64	-0.29306328
49	0x3f8af1c5	1.0855032
50	0xbe833d53	-0.25632724
51	0xbfae12d4	-1.3599496
52	0x3fae9fbd	1.3642498
53	0x3f803fe4	1.0019498
54	0xbe8c31f9	-0.27381876
55	0x3e93babb	0.28853402
56	0x3f94e580	1.1632538
57	0x3ed219fc	0.4103545
58	0x3fddb2fe	1.7320249
59	0x3ff4dae3	1.9129299
60	0x3f0aa8e7	0.54163975
61	0xbf86373a	-1.0485604
62	0xbd636099	-0.055512045
63	0x3e2d6b96	0.16935572

linear2.bias f4 [8]
0	0x3ec8dd68	0.3923142
1	0x3f07cde2	0.5304853
2	0x3ef0c250	0.4702325
3	0x3d56c061	0.05242956
4	0x3e21c306	0.15797052
5	0x3e07d2af	0.13263963
6	0x3efe7a67	0.4970276
7	0x3ef4fa5f	0.47847268

linear3.weight f4 [7, 8]
0	0xbf982e71	-1.1889173
1	0xc020dbfb	-2.5134265
2	0xbfa30865	-1.2736937
3	0xbfc211b0	-1.5161648
4	0xc07fd9a5	-3.997659
5	0x3f9882a0	1.1914864
6	0xc016e583	-2.3577583
7	0x3fb3bdbc	1.4042277
8	0xbf8be143	-1.092812
9	0x3e0a96b7	0.13534056
10	0xbf897ace	-1.0740602
11	0x3f202258	0.62552404
12	0x3ead525c	0.33851898
13	0x3f0d4a95	0.5519193
14	0x3f2dd049	0.6789594
15	0xbf14b5a5	-0.5808967
16	0xbdf8586b	-0.121262394
17	0x3f67e917	0.9059004
18	0x3f0dffaf	0.5546827
19	0xbd4b15a3	-0.04958118
20	0x3e991f55	0.29906717
21	0xbfc2554d	-1.5182282
22	0xbf5c8c80	-0.86151886
23	0xbe95a8a5	-0.29230228
24	0xc044794b	-3.0699031
25	0x3e8e990e	0.27851146
26	0xc03ee3c0	-2.9826508
27	0xbfddb450	-1.7320652
28	0x3fc1791d	1.5115086
29	0xbe1c55cd	-0.15267105
30	0xc0283fa0	-2.6288834
31	0x3f60e927	0.8785576
32	0x3fa3d81d	1.2800328
33	0xc0593c6e	-3.3943133
34	0x3f41160c	0.75424266
35	0xbfc73537	-1.5563115
36	0xc096514a	-4.697423
37	0xc0198de8	-2.3992863
38	0xc05965c3	-3.396836
39	0x3f3112d4	0.69169354
40	0x3f75dbfa	0.9603878
41	0xbfe01710	-1.7507038
42	0x3e8a8e5c	0.27061737
43	0x3fe03a2c	1.7517753
44	0xbe6b1e8c	-0.22960871
45	0xbfe487f9	-1.7853996
46	0x3e4dc11f	0.20093201
47	0xc0780de0	-3.8758469
48	0x3eaa67b3	0.3328224
49	0xbbcbc293	-0.0062182634
50	0x3eb36b62	0.35042864
51	0xbfa0bdaf	-1.2557887
52	0xbf4e22ce	-0.8052186
53	0x3f0a1208	0.53933764
54	0x3f30224d	0.6880234
55	0xbed1902e	-0.40930313

linear3.bias f4 [7]
0	0x3c16237c	0.009163734
1	0xbec891ec	-0.3917383
2	0x3da0fda1	0.07860876
3	0xbd745985	-0.059655685
4	0xbf54ee6f	-0.8317632
5	0xbeb7c71f	-0.35894105
6	0xbe28eb18	-0.16495931
